…
saic=1.0, mixup=0.0, copy_paste=0.0, copy_paste_mode=flip, auto_augment=randaugment, erasing=0.4, crop_fraction=1.0, cfg=None, tracker=botsort.yaml, save_dir=runs/classify/train3
train: /content/classification_dataset/train... found 252772 images in 967 classes ✅ 
val: /content/classification_dataset/val... found 31561 images in 967 classes ✅ 
test: /content/classification_dataset/test... found 31593 images in 967 classes ✅ 

                   from  n    params  module                                       arguments                     
  0                  -1  1      1856  ultralytics.nn.modules.conv.Conv             [3, 64, 3, 2]                 
  1                  -1  1     73984  ultralytics.nn.modules.conv.Conv             [64, 128, 3, 2]               
  2                  -1  1    111872  ultralytics.nn.modules.block.C3k2            [128, 256, 1, True, 0.25]     
  3                  -1  1    590336  ultralytics.nn.modules.conv.Conv             [256, 256, 3, 2]              
  4                  -1  1    444928  ultralytics.nn.modules.block.C3k2            [256, 512, 1, True, 0.25]     
  5                  -1  1   2360320  ultralytics.nn.modules.conv.Conv             [512, 512, 3, 2]              
  6                  -1  1   1380352  ultralytics.nn.modules.block.C3k2            [512, 512, 1, True]           
  7                  -1  1   2360320  ultralytics.nn.modules.conv.Conv             [512, 512, 3, 2]              
  8                  -1  1   1380352  ultralytics.nn.modules.block.C3k2            [512, 512, 1, True]           
  9                  -1  1    990976  ultralytics.nn.modules.block.C2PSA           [512, 512, 1]                 
 10                  -1  1   1896647  ultralytics.nn.modules.head.Classify         [512, 967]                    
YOLO11m-cls summary: 106 layers, 11,591,943 parameters, 11,591,943 gradients, 40.6 GFLOPs
Transferred 296/296 items from pretrained weights
TensorBoard: Start with 'tensorboard --logdir runs/classify/train3', view at http://localhost:6006/
AMP: running Automatic Mixed Precision (AMP) checks...
AMP: checks passed ✅
WARNING ⚠️ Classification `cache_ram` training has known memory leak in https://github.com/ultralytics/ultralytics/issues/9824, setting `cache_ram=False`.
…
