…
aste=0.0, copy_paste_mode=flip, auto_augment=randaugment, erasing=0.4, crop_fraction=1.0, cfg=None, tracker=botsort.yaml, save_dir=runs/classify/train2
train: /content/classification_dataset/train... found 3520 images in 2 classes ✅ 
val: /content/classification_dataset/val... found 440 images in 2 classes ✅ 
test: /content/classification_dataset/test... found 440 images in 2 classes ✅ 
Overriding model.yaml nc=80 with nc=2

                   from  n    params  module                                       arguments                     
  0                  -1  1       464  ultralytics.nn.modules.conv.Conv             [3, 16, 3, 2]                 
  1                  -1  1      4672  ultralytics.nn.modules.conv.Conv             [16, 32, 3, 2]                
  2                  -1  1      6640  ultralytics.nn.modules.block.C3k2            [32, 64, 1, False, 0.25]      
  3                  -1  1     36992  ultralytics.nn.modules.conv.Conv             [64, 64, 3, 2]                
  4                  -1  1     26080  ultralytics.nn.modules.block.C3k2            [64, 128, 1, False, 0.25]     
  5                  -1  1    147712  ultralytics.nn.modules.conv.Conv             [128, 128, 3, 2]              
  6                  -1  1     87040  ultralytics.nn.modules.block.C3k2            [128, 128, 1, True]           
  7                  -1  1    295424  ultralytics.nn.modules.conv.Conv             [128, 256, 3, 2]              
  8                  -1  1    346112  ultralytics.nn.modules.block.C3k2            [256, 256, 1, True]           
  9                  -1  1    249728  ultralytics.nn.modules.block.C2PSA           [256, 256, 1]                 
 10                  -1  1    332802  ultralytics.nn.modules.head.Classify         [256, 2]                      
YOLO11n-cls summary: 86 layers, 1,533,666 parameters, 1,533,666 gradients, 3.3 GFLOPs
Transferred 234/236 items from pretrained weights
TensorBoard: Start with 'tensorboard --logdir runs/classify/train2', view at http://localhost:6006/
AMP: running Automatic Mixed Precision (AMP) checks...
AMP: checks passed ✅
WARNING ⚠️ Classification `cache_ram` training has known memory leak in https://github.com/ultralytics/ultralytics/issues/9824, setting `cache_ram=False`.
…
